tests/data/smpl/smpl_mean_params.npz (npz, 1310 bytes, 3 tensors)

shape f4 [10]
0.20560974 0.33556297 -0.35068282 0.35612896 0.41754073 0.03088791 0.30475676 0.23613405
0.20912662 0.31212646
00000000: 5c8b 523e e9ce ab3e b38c b3be 8956 b63e
00000010: e6c7 d53e a408 fd3c 1409 9c3e 20cd 713e
00000020: 4a25 563e 0acf 9f3e

pose f4 [144]
1.0 0.0 0.0 -1.0000005 0.0 1.5099582e-07 0.99559414 -0.09350749
0.08962149 0.970809 -0.027572721 -0.22087605 0.9958537 0.08324966 -0.07225683 0.9687957
0.055265453 -0.23346172 0.99980587 -0.011680188 0.015589345 0.96145624 -0.012051098 0.2747099
0.9935164 0.07950174 -0.106274955 0.90336645 0.040383212 0.4214362 0.9981748 -0.05753511
0.05923843 0.87374073 0.011741892 0.4829771 0.99948084 -0.006160048 0.005431899 0.9997193
0.0317587 0.02287552 0.9898637 0.054710317 -0.053795528 0.99849665 -0.13143748 0.0033560155
0.9755785 -0.12912928 0.13940807 0.98913884 0.16974084 -0.07021397 0.9999539 -0.008902689
0.008853648 0.9998706 0.0037151985 0.013398969 0.98135763 -0.12436221 0.091088094 0.97231835
-0.16923411 -0.19781582 0.9758719 0.20085554 -0.20403142 0.9785038 -0.07775026 -0.04676828
0.9999657 0.0034992327 -0.0034571514 0.99997824 0.007521934 -0.0055906456 0.9551247 0.2709411
-0.26800695 0.9625747 0.12613122 -0.006388627 0.95240885 -0.23796427 0.22888842 0.97103
-0.20131451 -0.02176573 0.9986409 -0.034173205 0.031472854 0.99723583 0.041543387 0.065976344
0.72810054 0.6247271 -0.63960654 0.767192 0.2465219 0.14537027 0.7569207 -0.5906969
0.605992 0.79455715 -0.24463192 0.1405567 0.5885215 -0.25563353 0.15234464 0.9667655
0.7939985 0.003985256 0.5749246 0.20240024 -0.2336973 0.96917903 -0.784122 -0.14044964
0.9932956 -0.046571393 0.05342104 0.99659204 0.10251832 -0.06808373 0.99337906 0.06878266
-0.072302386 0.9967516 -0.08927739 -0.041894987 0.98212767 0.18262246 -0.17419025 0.9735881
0.07129501 -0.13702239 0.9739746 -0.20366822 0.1941577 0.9761122 -0.116945654 -0.07565892
00000000: 0000 803f 0000 0000 0000 0000 0400 80bf
00000010: 0000 0000 6a21 2234 42df 7e3f db80 bfbd
00000020: 798b b73d f086 783f 30e0 e1bc 552d 62be
00000030: 45f0 7e3f cc7e aa3d 64fb 93bd ff02 783f
00000040: 075e 623d 9710 6fbe 47f3 7f3f 425e 3fbc
00000050: 746a 7f3c ff21 763f f871 45bc c7a6 8c3e
00000060: 1757 7e3f cfd1 a23d afa6 d9bd 0643 673f
00000070: de68 253d 7cc6 d73e 6288 7f3f efa9 6bbd
00000080: ffa3 723d 79ad 5f3f 1161 403c c648 f73e
00000090: fadd 7f3f 3ada c9bb 12fe b13b 9bed 7f3f
000000a0: 6915 023d 7165 bb3c b567 7d3f ed17 603d
000000b0: b358 5cbd 7a9d 7f3f 8c97 06be 99f0 5b3b
000000c0: 83bf 793f 773a 04be fdc0 0e3e 3438 7d3f
000000d0: 8bd0 2d3e 58cc 8fbd fbfc 7f3f 96dc 11bc
000000e0: e40e 113c 85f7 7f3f b07a 733b 5987 5b3c
000000f0: 413a 7b3f 9db1 febd 658c ba3d dbe9 783f
00000100: b54b 2dbe 3b90 4abe bed2 793f 13ad 4d3e
00000110: 9ded 50be 3a7f 7a3f 873b 9fbd 1990 3fbd
00000120: c1fd 7f3f 6253 653b 6091 62bb 93fe 7f3f
00000130: 8e7a f63b bc31 b7bb 0d83 743f cbb8 8a3e
00000140: 3538 89be 4c6b 763f 8b28 013e b057 d1bb
00000150: 11d1 733f e8ac 73be ba61 6a3e 6c95 783f
00000160: 6425 4ebe 0b4e b2bc eea6 7f3f 34f9 0bbd
00000170: aee9 003d d94a 7f3f 6629 2a3d 9b1e 873d
00000180: cc64 3a3f 1dee 1f3f 41bd 23bf b266 443f
00000190: 3d70 7c3e f2db 143e 8ec5 413f e937 17bf
000001a0: 4b22 1b3f 1968 4b3f ca80 7abe 18ee 0f3e
000001b0: 58a9 163f 66e2 82be 3c00 1c3e f27d 773f
000001c0: 7c43 4b3f c096 823b 422e 133f 0242 4f3e
000001d0: 584e 6fbe 1e1c 783f 38bc 48bf 08d2 0fbe
000001e0: 9f48 7e3f a5c1 3ebd 05d0 5a3d a820 7f3f
000001f0: 20f5 d13d 7c6f 8bbd 174e 7e3f ecdd 8c3d
00000200: 4613 94bd 1d2b 7f3f 10d7 b6bd 149a 2bbd
00000210: b86c 7b3f 6201 3b3e ee5e 32be 123d 793f
00000220: 1e03 923d 994f 0cbe 6656 793f 678e 50be
00000230: 47d1 463e 7de2 793f 3481 efbd 10f3 9abd

cam f4 [3]
0.9 0.0 0.0
00000000: 6666 663f 0000 0000 0000 0000
